Model: "model_3"
__________________________________________________________________________________________________
 Layer (type)                   Output Shape         Param #     Connected to                     
==================================================================================================
 input_4 (InputLayer)           [(None, 50, 50, 3)]  0           []                               
                                                                                                  
 conv1_pad (ZeroPadding2D)      (None, 56, 56, 3)    0           ['input_4[0][0]']                
                                                                                                  
 conv1_conv (Conv2D)            (None, 25, 25, 64)   9472        ['conv1_pad[0][0]']              
                                                                                                  
 pool1_pad (ZeroPadding2D)      (None, 27, 27, 64)   0           ['conv1_conv[0][0]']             
                                                                                                  
 pool1_pool (MaxPooling2D)      (None, 13, 13, 64)   0           ['pool1_pad[0][0]']              
                                                                                                  
 conv2_block1_preact_bn (BatchN  (None, 13, 13, 64)  256         ['pool1_pool[0][0]']             
 ormalization)                                                                                    
                                                                                                  
 conv2_block1_preact_relu (Acti  (None, 13, 13, 64)  0           ['conv2_block1_preact_bn[0][0]'] 
 vation)                                                                                          
                                                                                                  
 conv2_block1_1_conv (Conv2D)   (None, 13, 13, 64)   4096        ['conv2_block1_preact_relu[0][0]'
                                                                 ]                                
                                                                                                  
 conv2_block1_1_bn (BatchNormal  (None, 13, 13, 64)  256         ['conv2_block1_1_conv[0][0]']    
 ization)                                                                                         
                                                                                                  
 conv2_block1_1_relu (Activatio  (None, 13, 13, 64)  0           ['conv2_block1_1_bn[0][0]']      
 n)                                                                                               
                                                                                                  
 conv2_block1_2_pad (ZeroPaddin  (None, 15, 15, 64)  0           ['conv2_block1_1_relu[0][0]']    
 g2D)                                                                                             
                                                                                                  
 conv2_block1_2_conv (Conv2D)   (None, 13, 13, 64)   36864       ['conv2_block1_2_pad[0][0]']     
                                                                                                  
 conv2_block1_2_bn (BatchNormal  (None, 13, 13, 64)  256         ['conv2_block1_2_conv[0][0]']    
 ization)                                                                                         
                                                                                                  
 conv2_block1_2_relu (Activatio  (None, 13, 13, 64)  0           ['conv2_block1_2_bn[0][0]']      
 n)                                                                                               
                                                                                                  
 conv2_block1_0_conv (Conv2D)   (None, 13, 13, 256)  16640       ['conv2_block1_preact_relu[0][0]'
                                                                 ]                                
                                                                                                  
 conv2_block1_3_conv (Conv2D)   (None, 13, 13, 256)  16640       ['conv2_block1_2_relu[0][0]']    
                                                                                                  
 conv2_block1_out (Add)         (None, 13, 13, 256)  0           ['conv2_block1_0_conv[0][0]',    
                                                                  'conv2_block1_3_conv[0][0]']    
                                                                                                  
 conv2_block2_preact_bn (BatchN  (None, 13, 13, 256)  1024       ['conv2_block1_out[0][0]']       
 ormalization)                                                                                    
                                                                                                  
 conv2_block2_preact_relu (Acti  (None, 13, 13, 256)  0          ['conv2_block2_preact_bn[0][0]'] 
 vation)                                                                                          
                                                                                                  
 conv2_block2_1_conv (Conv2D)   (None, 13, 13, 64)   16384       ['conv2_block2_preact_relu[0][0]'
                                                                 ]                                
                                                                                                  
 conv2_block2_1_bn (BatchNormal  (None, 13, 13, 64)  256         ['conv2_block2_1_conv[0][0]']    
 ization)                                                                                         
                                                                                                  
 conv2_block2_1_relu (Activatio  (None, 13, 13, 64)  0           ['conv2_block2_1_bn[0][0]']      
 n)                                                                                               
                                                                                                  
 conv2_block2_2_pad (ZeroPaddin  (None, 15, 15, 64)  0           ['conv2_block2_1_relu[0][0]']    
 g2D)                                                                                             
                                                                                                  
 conv2_block2_2_conv (Conv2D)   (None, 13, 13, 64)   36864       ['conv2_block2_2_pad[0][0]']     
                                                                                                  
 conv2_block2_2_bn (BatchNormal  (None, 13, 13, 64)  256         ['conv2_block2_2_conv[0][0]']    
 ization)                                                                                         
                                                                                                  
 conv2_block2_2_relu (Activatio  (None, 13, 13, 64)  0           ['conv2_block2_2_bn[0][0]']      
 n)                                                                                               
                                                                                                  
 conv2_block2_3_conv (Conv2D)   (None, 13, 13, 256)  16640       ['conv2_block2_2_relu[0][0]']    
                                                                                                  
 conv2_block2_out (Add)         (None, 13, 13, 256)  0           ['conv2_block1_out[0][0]',       
                                                                  'conv2_block2_3_conv[0][0]']    
                                                                                                  
 conv2_block3_preact_bn (BatchN  (None, 13, 13, 256)  1024       ['conv2_block2_out[0][0]']       
 ormalization)                                                                                    
                                                                                                  
 conv2_block3_preact_relu (Acti  (None, 13, 13, 256)  0          ['conv2_block3_preact_bn[0][0]'] 
 vation)                                                                                          
                                                                                                  
 conv2_block3_1_conv (Conv2D)   (None, 13, 13, 64)   16384       ['conv2_block3_preact_relu[0][0]'
                                                                 ]                                
                                                                                                  
 conv2_block3_1_bn (BatchNormal  (None, 13, 13, 64)  256         ['conv2_block3_1_conv[0][0]']    
 ization)                                                                                         
                                                                                                  
 conv2_block3_1_relu (Activatio  (None, 13, 13, 64)  0           ['conv2_block3_1_bn[0][0]']      
 n)                                                                                               
                                                                                                  
 conv2_block3_2_pad (ZeroPaddin  (None, 15, 15, 64)  0           ['conv2_block3_1_relu[0][0]']    
 g2D)                                                                                             
                                                                                                  
 conv2_block3_2_conv (Conv2D)   (None, 7, 7, 64)     36864       ['conv2_block3_2_pad[0][0]']     
                                                                                                  
 conv2_block3_2_bn (BatchNormal  (None, 7, 7, 64)    256         ['conv2_block3_2_conv[0][0]']    
 ization)                                                                                         
                                                                                                  
 conv2_block3_2_relu (Activatio  (None, 7, 7, 64)    0           ['conv2_block3_2_bn[0][0]']      
 n)                                                                                               
                                                                                                  
 max_pooling2d (MaxPooling2D)   (None, 7, 7, 256)    0           ['conv2_block2_out[0][0]']       
                                                                                                  
 conv2_block3_3_conv (Conv2D)   (None, 7, 7, 256)    16640       ['conv2_block3_2_relu[0][0]']    
                                                                                                  
 conv2_block3_out (Add)         (None, 7, 7, 256)    0           ['max_pooling2d[0][0]',          
                                                                  'conv2_block3_3_conv[0][0]']    
                                                                                                  
 conv3_block1_preact_bn (BatchN  (None, 7, 7, 256)   1024        ['conv2_block3_out[0][0]']       
 ormalization)                                                                                    
                                                                                                  
 conv3_block1_preact_relu (Acti  (None, 7, 7, 256)   0           ['conv3_block1_preact_bn[0][0]'] 
 vation)                                                                                          
                                                                                                  
 conv3_block1_1_conv (Conv2D)   (None, 7, 7, 128)    32768       ['conv3_block1_preact_relu[0][0]'
                                                                 ]                                
                                                                                                  
 conv3_block1_1_bn (BatchNormal  (None, 7, 7, 128)   512         ['conv3_block1_1_conv[0][0]']    
 ization)                                                                                         
                                                                                                  
 conv3_block1_1_relu (Activatio  (None, 7, 7, 128)   0           ['conv3_block1_1_bn[0][0]']      
 n)                                                                                               
                                                                                                  
 conv3_block1_2_pad (ZeroPaddin  (None, 9, 9, 128)   0           ['conv3_block1_1_relu[0][0]']    
 g2D)                                                                                             
                                                                                                  
 conv3_block1_2_conv (Conv2D)   (None, 7, 7, 128)    147456      ['conv3_block1_2_pad[0][0]']     
                                                                                                  
 conv3_block1_2_bn (BatchNormal  (None, 7, 7, 128)   512         ['conv3_block1_2_conv[0][0]']    
 ization)                                                                                         
                                                                                                  
 conv3_block1_2_relu (Activatio  (None, 7, 7, 128)   0           ['conv3_block1_2_bn[0][0]']      
 n)                                                                                               
                                                                                                  
 conv3_block1_0_conv (Conv2D)   (None, 7, 7, 512)    131584      ['conv3_block1_preact_relu[0][0]'
                                                                 ]                                
                                                                                                  
 conv3_block1_3_conv (Conv2D)   (None, 7, 7, 512)    66048       ['conv3_block1_2_relu[0][0]']    
                                                                                                  
 conv3_block1_out (Add)         (None, 7, 7, 512)    0           ['conv3_block1_0_conv[0][0]',    
                                                                  'conv3_block1_3_conv[0][0]']    
                                                                                                  
 conv3_block2_preact_bn (BatchN  (None, 7, 7, 512)   2048        ['conv3_block1_out[0][0]']       
 ormalization)                                                                                    
                                                                                                  
 conv3_block2_preact_relu (Acti  (None, 7, 7, 512)   0           ['conv3_block2_preact_bn[0][0]'] 
 vation)                                                                                          
                                                                                                  
 conv3_block2_1_conv (Conv2D)   (None, 7, 7, 128)    65536       ['conv3_block2_preact_relu[0][0]'
                                                                 ]                                
                                                                                                  
 conv3_block2_1_bn (BatchNormal  (None, 7, 7, 128)   512         ['conv3_block2_1_conv[0][0]']    
 ization)                                                                                         
                                                                                                  
 conv3_block2_1_relu (Activatio  (None, 7, 7, 128)   0           ['conv3_block2_1_bn[0][0]']      
 n)                                                                                               
                                                                                                  
 conv3_block2_2_pad (ZeroPaddin  (None, 9, 9, 128)   0           ['conv3_block2_1_relu[0][0]']    
 g2D)                                                                                             
                                                                                                  
 conv3_block2_2_conv (Conv2D)   (None, 7, 7, 128)    147456      ['conv3_block2_2_pad[0][0]']     
                                                                                                  
 conv3_block2_2_bn (BatchNormal  (None, 7, 7, 128)   512         ['conv3_block2_2_conv[0][0]']    
 ization)                                                                                         
                                                                                                  
 conv3_block2_2_relu (Activatio  (None, 7, 7, 128)   0           ['conv3_block2_2_bn[0][0]']      
 n)                                                                                               
                                                                                                  
 conv3_block2_3_conv (Conv2D)   (None, 7, 7, 512)    66048       ['conv3_block2_2_relu[0][0]']    
                                                                                                  
 conv3_block2_out (Add)         (None, 7, 7, 512)    0           ['conv3_block1_out[0][0]',       
                                                                  'conv3_block2_3_conv[0][0]']    
                                                                                                  
 conv3_block3_preact_bn (BatchN  (None, 7, 7, 512)   2048        ['conv3_block2_out[0][0]']       
 ormalization)                                                                                    
                                                                                                  
 conv3_block3_preact_relu (Acti  (None, 7, 7, 512)   0           ['conv3_block3_preact_bn[0][0]'] 
 vation)                                                                                          
                                                                                                  
 conv3_block3_1_conv (Conv2D)   (None, 7, 7, 128)    65536       ['conv3_block3_preact_relu[0][0]'
                                                                 ]                                
                                                                                                  
 conv3_block3_1_bn (BatchNormal  (None, 7, 7, 128)   512         ['conv3_block3_1_conv[0][0]']    
 ization)                                                                                         
                                                                                                  
 conv3_block3_1_relu (Activatio  (None, 7, 7, 128)   0           ['conv3_block3_1_bn[0][0]']      
 n)                                                                                               
                                                                                                  
 conv3_block3_2_pad (ZeroPaddin  (None, 9, 9, 128)   0           ['conv3_block3_1_relu[0][0]']    
 g2D)                                                                                             
                                                                                                  
 conv3_block3_2_conv (Conv2D)   (None, 7, 7, 128)    147456      ['conv3_block3_2_pad[0][0]']     
                                                                                                  
 conv3_block3_2_bn (BatchNormal  (None, 7, 7, 128)   512         ['conv3_block3_2_conv[0][0]']    
 ization)                                                                                         
                                                                                                  
 conv3_block3_2_relu (Activatio  (None, 7, 7, 128)   0           ['conv3_block3_2_bn[0][0]']      
 n)                                                                                               
                                                                                                  
 conv3_block3_3_conv (Conv2D)   (None, 7, 7, 512)    66048       ['conv3_block3_2_relu[0][0]']    
                                                                                                  
 conv3_block3_out (Add)         (None, 7, 7, 512)    0           ['conv3_block2_out[0][0]',       
                                                                  'conv3_block3_3_conv[0][0]']    
                                                                                                  
 conv3_block4_preact_bn (BatchN  (None, 7, 7, 512)   2048        ['conv3_block3_out[0][0]']       
 ormalization)                                                                                    
                                                                                                  
 conv3_block4_preact_relu (Acti  (None, 7, 7, 512)   0           ['conv3_block4_preact_bn[0][0]'] 
 vation)                                                                                          
                                                                                                  
 conv3_block4_1_conv (Conv2D)   (None, 7, 7, 128)    65536       ['conv3_block4_preact_relu[0][0]'
                                                                 ]                                
                                                                                                  
 conv3_block4_1_bn (BatchNormal  (None, 7, 7, 128)   512         ['conv3_block4_1_conv[0][0]']    
 ization)                                                                                         
                                                                                                  
 conv3_block4_1_relu (Activatio  (None, 7, 7, 128)   0           ['conv3_block4_1_bn[0][0]']      
 n)                                                                                               
                                                                                                  
 conv3_block4_2_pad (ZeroPaddin  (None, 9, 9, 128)   0           ['conv3_block4_1_relu[0][0]']    
 g2D)                                                                                             
                                                                                                  
 conv3_block4_2_conv (Conv2D)   (None, 4, 4, 128)    147456      ['conv3_block4_2_pad[0][0]']     
                                                                                                  
 conv3_block4_2_bn (BatchNormal  (None, 4, 4, 128)   512         ['conv3_block4_2_conv[0][0]']    
 ization)                                                                                         
                                                                                                  
 conv3_block4_2_relu (Activatio  (None, 4, 4, 128)   0           ['conv3_block4_2_bn[0][0]']      
 n)                                                                                               
                                                                                                  
 max_pooling2d_1 (MaxPooling2D)  (None, 4, 4, 512)   0           ['conv3_block3_out[0][0]']       
                                                                                                  
 conv3_block4_3_conv (Conv2D)   (None, 4, 4, 512)    66048       ['conv3_block4_2_relu[0][0]']    
                                                                                                  
 conv3_block4_out (Add)         (None, 4, 4, 512)    0           ['max_pooling2d_1[0][0]',        
                                                                  'conv3_block4_3_conv[0][0]']    
                                                                                                  
 conv4_block1_preact_bn (BatchN  (None, 4, 4, 512)   2048        ['conv3_block4_out[0][0]']       
 ormalization)                                                                                    
                                                                                                  
 conv4_block1_preact_relu (Acti  (None, 4, 4, 512)   0           ['conv4_block1_preact_bn[0][0]'] 
 vation)                                                                                          
                                                                                                  
 conv4_block1_1_conv (Conv2D)   (None, 4, 4, 256)    131072      ['conv4_block1_preact_relu[0][0]'
                                                                 ]                                
                                                                                                  
 conv4_block1_1_bn (BatchNormal  (None, 4, 4, 256)   1024        ['conv4_block1_1_conv[0][0]']    
 ization)                                                                                         
                                                                                                  
 conv4_block1_1_relu (Activatio  (None, 4, 4, 256)   0           ['conv4_block1_1_bn[0][0]']      
 n)                                                                                               
                                                                                                  
 conv4_block1_2_pad (ZeroPaddin  (None, 6, 6, 256)   0           ['conv4_block1_1_relu[0][0]']    
 g2D)                                                                                             
                                                                                                  
 conv4_block1_2_conv (Conv2D)   (None, 4, 4, 256)    589824      ['conv4_block1_2_pad[0][0]']     
                                                                                                  
 conv4_block1_2_bn (BatchNormal  (None, 4, 4, 256)   1024        ['conv4_block1_2_conv[0][0]']    
 ization)                                                                                         
                                                                                                  
 conv4_block1_2_relu (Activatio  (None, 4, 4, 256)   0           ['conv4_block1_2_bn[0][0]']      
 n)                                                                                               
                                                                                                  
 conv4_block1_0_conv (Conv2D)   (None, 4, 4, 1024)   525312      ['conv4_block1_preact_relu[0][0]'
                                                                 ]                                
                                                                                                  
 conv4_block1_3_conv (Conv2D)   (None, 4, 4, 1024)   263168      ['conv4_block1_2_relu[0][0]']    
                                                                                                  
 conv4_block1_out (Add)         (None, 4, 4, 1024)   0           ['conv4_block1_0_conv[0][0]',    
                                                                  'conv4_block1_3_conv[0][0]']    
                                                                                                  
 conv4_block2_preact_bn (BatchN  (None, 4, 4, 1024)  4096        ['conv4_block1_out[0][0]']       
 ormalization)                                                                                    
                                                                                                  
 conv4_block2_preact_relu (Acti  (None, 4, 4, 1024)  0           ['conv4_block2_preact_bn[0][0]'] 
 vation)                                                                                          
                                                                                                  
 conv4_block2_1_conv (Conv2D)   (None, 4, 4, 256)    262144      ['conv4_block2_preact_relu[0][0]'
                                                                 ]                                
                                                                                                  
 conv4_block2_1_bn (BatchNormal  (None, 4, 4, 256)   1024        ['conv4_block2_1_conv[0][0]']    
 ization)                                                                                         
                                                                                                  
 conv4_block2_1_relu (Activatio  (None, 4, 4, 256)   0           ['conv4_block2_1_bn[0][0]']      
 n)                                                                                               
                                                                                                  
 conv4_block2_2_pad (ZeroPaddin  (None, 6, 6, 256)   0           ['conv4_block2_1_relu[0][0]']    
 g2D)                                                                                             
                                                                                                  
 conv4_block2_2_conv (Conv2D)   (None, 4, 4, 256)    589824      ['conv4_block2_2_pad[0][0]']     
                                                                                                  
 conv4_block2_2_bn (BatchNormal  (None, 4, 4, 256)   1024        ['conv4_block2_2_conv[0][0]']    
 ization)                                                                                         
                                                                                                  
 conv4_block2_2_relu (Activatio  (None, 4, 4, 256)   0           ['conv4_block2_2_bn[0][0]']      
 n)                                                                                               
                                                                                                  
 conv4_block2_3_conv (Conv2D)   (None, 4, 4, 1024)   263168      ['conv4_block2_2_relu[0][0]']    
                                                                                                  
 conv4_block2_out (Add)         (None, 4, 4, 1024)   0           ['conv4_block1_out[0][0]',       
                                                                  'conv4_block2_3_conv[0][0]']    
                                                                                                  
 conv4_block3_preact_bn (BatchN  (None, 4, 4, 1024)  4096        ['conv4_block2_out[0][0]']       
 ormalization)                                                                                    
                                                                                                  
 conv4_block3_preact_relu (Acti  (None, 4, 4, 1024)  0           ['conv4_block3_preact_bn[0][0]'] 
 vation)                                                                                          
                                                                                                  
 conv4_block3_1_conv (Conv2D)   (None, 4, 4, 256)    262144      ['conv4_block3_preact_relu[0][0]'
                                                                 ]                                
                                                                                                  
 conv4_block3_1_bn (BatchNormal  (None, 4, 4, 256)   1024        ['conv4_block3_1_conv[0][0]']    
 ization)                                                                                         
                                                                                                  
 conv4_block3_1_relu (Activatio  (None, 4, 4, 256)   0           ['conv4_block3_1_bn[0][0]']      
 n)                                                                                               
                                                                                                  
 conv4_block3_2_pad (ZeroPaddin  (None, 6, 6, 256)   0           ['conv4_block3_1_relu[0][0]']    
 g2D)                                                                                             
                                                                                                  
 conv4_block3_2_conv (Conv2D)   (None, 4, 4, 256)    589824      ['conv4_block3_2_pad[0][0]']     
                                                                                                  
 conv4_block3_2_bn (BatchNormal  (None, 4, 4, 256)   1024        ['conv4_block3_2_conv[0][0]']    
 ization)                                                                                         
                                                                                                  
 conv4_block3_2_relu (Activatio  (None, 4, 4, 256)   0           ['conv4_block3_2_bn[0][0]']      
 n)                                                                                               
                                                                                                  
 conv4_block3_3_conv (Conv2D)   (None, 4, 4, 1024)   263168      ['conv4_block3_2_relu[0][0]']    
                                                                                                  
 conv4_block3_out (Add)         (None, 4, 4, 1024)   0           ['conv4_block2_out[0][0]',       
                                                                  'conv4_block3_3_conv[0][0]']    
                                                                                                  
 conv4_block4_preact_bn (BatchN  (None, 4, 4, 1024)  4096        ['conv4_block3_out[0][0]']       
 ormalization)                                                                                    
                                                                                                  
 conv4_block4_preact_relu (Acti  (None, 4, 4, 1024)  0           ['conv4_block4_preact_bn[0][0]'] 
 vation)                                                                                          
                                                                                                  
 conv4_block4_1_conv (Conv2D)   (None, 4, 4, 256)    262144      ['conv4_block4_preact_relu[0][0]'
                                                                 ]                                
                                                                                                  
 conv4_block4_1_bn (BatchNormal  (None, 4, 4, 256)   1024        ['conv4_block4_1_conv[0][0]']    
 ization)                                                                                         
                                                                                                  
 conv4_block4_1_relu (Activatio  (None, 4, 4, 256)   0           ['conv4_block4_1_bn[0][0]']      
 n)                                                                                               
                                                                                                  
 conv4_block4_2_pad (ZeroPaddin  (None, 6, 6, 256)   0           ['conv4_block4_1_relu[0][0]']    
 g2D)                                                                                             
                                                                                                  
 conv4_block4_2_conv (Conv2D)   (None, 4, 4, 256)    589824      ['conv4_block4_2_pad[0][0]']     
                                                                                                  
 conv4_block4_2_bn (BatchNormal  (None, 4, 4, 256)   1024        ['conv4_block4_2_conv[0][0]']    
 ization)                                                                                         
                                                                                                  
 conv4_block4_2_relu (Activatio  (None, 4, 4, 256)   0           ['conv4_block4_2_bn[0][0]']      
 n)                                                                                               
                                                                                                  
 conv4_block4_3_conv (Conv2D)   (None, 4, 4, 1024)   263168      ['conv4_block4_2_relu[0][0]']    
                                                                                                  
 conv4_block4_out (Add)         (None, 4, 4, 1024)   0           ['conv4_block3_out[0][0]',       
                                                                  'conv4_block4_3_conv[0][0]']    
                                                                                                  
 conv4_block5_preact_bn (BatchN  (None, 4, 4, 1024)  4096        ['conv4_block4_out[0][0]']       
 ormalization)                                                                                    
                                                                                                  
 conv4_block5_preact_relu (Acti  (None, 4, 4, 1024)  0           ['conv4_block5_preact_bn[0][0]'] 
 vation)                                                                                          
                                                                                                  
 conv4_block5_1_conv (Conv2D)   (None, 4, 4, 256)    262144      ['conv4_block5_preact_relu[0][0]'
                                                                 ]                                
                                                                                                  
 conv4_block5_1_bn (BatchNormal  (None, 4, 4, 256)   1024        ['conv4_block5_1_conv[0][0]']    
 ization)                                                                                         
                                                                                                  
 conv4_block5_1_relu (Activatio  (None, 4, 4, 256)   0           ['conv4_block5_1_bn[0][0]']      
 n)                                                                                               
                                                                                                  
 conv4_block5_2_pad (ZeroPaddin  (None, 6, 6, 256)   0           ['conv4_block5_1_relu[0][0]']    
 g2D)                                                                                             
                                                                                                  
 conv4_block5_2_conv (Conv2D)   (None, 4, 4, 256)    589824      ['conv4_block5_2_pad[0][0]']     
                                                                                                  
 conv4_block5_2_bn (BatchNormal  (None, 4, 4, 256)   1024        ['conv4_block5_2_conv[0][0]']    
 ization)                                                                                         
                                                                                                  
 conv4_block5_2_relu (Activatio  (None, 4, 4, 256)   0           ['conv4_block5_2_bn[0][0]']      
 n)                                                                                               
                                                                                                  
 conv4_block5_3_conv (Conv2D)   (None, 4, 4, 1024)   263168      ['conv4_block5_2_relu[0][0]']    
                                                                                                  
 conv4_block5_out (Add)         (None, 4, 4, 1024)   0           ['conv4_block4_out[0][0]',       
                                                                  'conv4_block5_3_conv[0][0]']    
                                                                                                  
 conv4_block6_preact_bn (BatchN  (None, 4, 4, 1024)  4096        ['conv4_block5_out[0][0]']       
 ormalization)                                                                                    
                                                                                                  
 conv4_block6_preact_relu (Acti  (None, 4, 4, 1024)  0           ['conv4_block6_preact_bn[0][0]'] 
 vation)                                                                                          
                                                                                                  
 conv4_block6_1_conv (Conv2D)   (None, 4, 4, 256)    262144      ['conv4_block6_preact_relu[0][0]'
                                                                 ]                                
                                                                                                  
 conv4_block6_1_bn (BatchNormal  (None, 4, 4, 256)   1024        ['conv4_block6_1_conv[0][0]']    
 ization)                                                                                         
                                                                                                  
 conv4_block6_1_relu (Activatio  (None, 4, 4, 256)   0           ['conv4_block6_1_bn[0][0]']      
 n)                                                                                               
                                                                                                  
 conv4_block6_2_pad (ZeroPaddin  (None, 6, 6, 256)   0           ['conv4_block6_1_relu[0][0]']    
 g2D)                                                                                             
                                                                                                  
 conv4_block6_2_conv (Conv2D)   (None, 2, 2, 256)    589824      ['conv4_block6_2_pad[0][0]']     
                                                                                                  
 conv4_block6_2_bn (BatchNormal  (None, 2, 2, 256)   1024        ['conv4_block6_2_conv[0][0]']    
 ization)                                                                                         
                                                                                                  
 conv4_block6_2_relu (Activatio  (None, 2, 2, 256)   0           ['conv4_block6_2_bn[0][0]']      
 n)                                                                                               
                                                                                                  
 max_pooling2d_2 (MaxPooling2D)  (None, 2, 2, 1024)  0           ['conv4_block5_out[0][0]']       
                                                                                                  
 conv4_block6_3_conv (Conv2D)   (None, 2, 2, 1024)   263168      ['conv4_block6_2_relu[0][0]']    
                                                                                                  
 conv4_block6_out (Add)         (None, 2, 2, 1024)   0           ['max_pooling2d_2[0][0]',        
                                                                  'conv4_block6_3_conv[0][0]']    
                                                                                                  
 conv5_block1_preact_bn (BatchN  (None, 2, 2, 1024)  4096        ['conv4_block6_out[0][0]']       
 ormalization)                                                                                    
                                                                                                  
 conv5_block1_preact_relu (Acti  (None, 2, 2, 1024)  0           ['conv5_block1_preact_bn[0][0]'] 
 vation)                                                                                          
                                                                                                  
 conv5_block1_1_conv (Conv2D)   (None, 2, 2, 512)    524288      ['conv5_block1_preact_relu[0][0]'
                                                                 ]                                
                                                                                                  
 conv5_block1_1_bn (BatchNormal  (None, 2, 2, 512)   2048        ['conv5_block1_1_conv[0][0]']    
 ization)                                                                                         
                                                                                                  
 conv5_block1_1_relu (Activatio  (None, 2, 2, 512)   0           ['conv5_block1_1_bn[0][0]']      
 n)                                                                                               
                                                                                                  
 conv5_block1_2_pad (ZeroPaddin  (None, 4, 4, 512)   0           ['conv5_block1_1_relu[0][0]']    
 g2D)                                                                                             
                                                                                                  
 conv5_block1_2_conv (Conv2D)   (None, 2, 2, 512)    2359296     ['conv5_block1_2_pad[0][0]']     
                                                                                                  
 conv5_block1_2_bn (BatchNormal  (None, 2, 2, 512)   2048        ['conv5_block1_2_conv[0][0]']    
 ization)                                                                                         
                                                                                                  
 conv5_block1_2_relu (Activatio  (None, 2, 2, 512)   0           ['conv5_block1_2_bn[0][0]']      
 n)                                                                                               
                                                                                                  
 conv5_block1_0_conv (Conv2D)   (None, 2, 2, 2048)   2099200     ['conv5_block1_preact_relu[0][0]'
                                                                 ]                                
                                                                                                  
 conv5_block1_3_conv (Conv2D)   (None, 2, 2, 2048)   1050624     ['conv5_block1_2_relu[0][0]']    
                                                                                                  
 conv5_block1_out (Add)         (None, 2, 2, 2048)   0           ['conv5_block1_0_conv[0][0]',    
                                                                  'conv5_block1_3_conv[0][0]']    
                                                                                                  
 conv5_block2_preact_bn (BatchN  (None, 2, 2, 2048)  8192        ['conv5_block1_out[0][0]']       
 ormalization)                                                                                    
                                                                                                  
 conv5_block2_preact_relu (Acti  (None, 2, 2, 2048)  0           ['conv5_block2_preact_bn[0][0]'] 
 vation)                                                                                          
                                                                                                  
 conv5_block2_1_conv (Conv2D)   (None, 2, 2, 512)    1048576     ['conv5_block2_preact_relu[0][0]'
                                                                 ]                                
                                                                                                  
 conv5_block2_1_bn (BatchNormal  (None, 2, 2, 512)   2048        ['conv5_block2_1_conv[0][0]']    
 ization)                                                                                         
                                                                                                  
 conv5_block2_1_relu (Activatio  (None, 2, 2, 512)   0           ['conv5_block2_1_bn[0][0]']      
 n)                                                                                               
                                                                                                  
 conv5_block2_2_pad (ZeroPaddin  (None, 4, 4, 512)   0           ['conv5_block2_1_relu[0][0]']    
 g2D)                                                                                             
                                                                                                  
 conv5_block2_2_conv (Conv2D)   (None, 2, 2, 512)    2359296     ['conv5_block2_2_pad[0][0]']     
                                                                                                  
 conv5_block2_2_bn (BatchNormal  (None, 2, 2, 512)   2048        ['conv5_block2_2_conv[0][0]']    
 ization)                                                                                         
                                                                                                  
 conv5_block2_2_relu (Activatio  (None, 2, 2, 512)   0           ['conv5_block2_2_bn[0][0]']      
 n)                                                                                               
                                                                                                  
 conv5_block2_3_conv (Conv2D)   (None, 2, 2, 2048)   1050624     ['conv5_block2_2_relu[0][0]']    
                                                                                                  
 conv5_block2_out (Add)         (None, 2, 2, 2048)   0           ['conv5_block1_out[0][0]',       
                                                                  'conv5_block2_3_conv[0][0]']    
                                                                                                  
 conv5_block3_preact_bn (BatchN  (None, 2, 2, 2048)  8192        ['conv5_block2_out[0][0]']       
 ormalization)                                                                                    
                                                                                                  
 conv5_block3_preact_relu (Acti  (None, 2, 2, 2048)  0           ['conv5_block3_preact_bn[0][0]'] 
 vation)                                                                                          
                                                                                                  
 conv5_block3_1_conv (Conv2D)   (None, 2, 2, 512)    1048576     ['conv5_block3_preact_relu[0][0]'
                                                                 ]                                
                                                                                                  
 conv5_block3_1_bn (BatchNormal  (None, 2, 2, 512)   2048        ['conv5_block3_1_conv[0][0]']    
 ization)                                                                                         
                                                                                                  
 conv5_block3_1_relu (Activatio  (None, 2, 2, 512)   0           ['conv5_block3_1_bn[0][0]']      
 n)                                                                                               
                                                                                                  
 conv5_block3_2_pad (ZeroPaddin  (None, 4, 4, 512)   0           ['conv5_block3_1_relu[0][0]']    
 g2D)                                                                                             
                                                                                                  
 conv5_block3_2_conv (Conv2D)   (None, 2, 2, 512)    2359296     ['conv5_block3_2_pad[0][0]']     
                                                                                                  
 conv5_block3_2_bn (BatchNormal  (None, 2, 2, 512)   2048        ['conv5_block3_2_conv[0][0]']    
 ization)                                                                                         
                                                                                                  
 conv5_block3_2_relu (Activatio  (None, 2, 2, 512)   0           ['conv5_block3_2_bn[0][0]']      
 n)                                                                                               
                                                                                                  
 conv5_block3_3_conv (Conv2D)   (None, 2, 2, 2048)   1050624     ['conv5_block3_2_relu[0][0]']    
                                                                                                  
 conv5_block3_out (Add)         (None, 2, 2, 2048)   0           ['conv5_block2_out[0][0]',       
                                                                  'conv5_block3_3_conv[0][0]']    
                                                                                                  
 post_bn (BatchNormalization)   (None, 2, 2, 2048)   8192        ['conv5_block3_out[0][0]']       
                                                                                                  
 post_relu (Activation)         (None, 2, 2, 2048)   0           ['post_bn[0][0]']                
                                                                                                  
 flatten_3 (Flatten)            (None, 8192)         0           ['post_relu[0][0]']              
                                                                                                  
 dense_3 (Dense)                (None, 29)           237597      ['flatten_3[0][0]']              
                                                                                                  
==================================================================================================
Total params: 23,802,397
Trainable params: 237,597
Non-trainable params: 23,564,800
__________________________________________________________________________________________________
…
