Model: "sequential_1"
_________________________________________________________________
 Layer (type)                Output Shape              Param #   
=================================================================
 lstm_1 (LSTM)               (None, 100)               66000     
                                                                 
 batch_normalization_1 (Batc  (None, 100)              400       
 hNormalization)                                                 
                                                                 
 flatten_1 (Flatten)         (None, 100)               0         
                                                                 
 dense_3 (Dense)             (None, 124)               12524     
                                                                 
 dense_4 (Dense)             (None, 64)                8000      
                                                                 
 dense_5 (Dense)             (None, 27)                1755      
                                                                 
=================================================================
Total params: 88,679
Trainable params: 88,479
Non-trainable params: 200
_________________________________________________________________
Epoch 1/15
1445/1445 [==============================] - 53s 36ms/step - loss: 2.5343 - accuracy: 0.1785 - val_loss: 5.6534 - val_accuracy: 0.0321
…
