Model: "model_1"
_________________________________________________________________
 Layer (type)                Output Shape              Param #   
=================================================================
 input_3 (InputLayer)        [(None, 50, 50, 3)]       0         
                                                                 
 block1_conv1 (Conv2D)       (None, 50, 50, 64)        1792      
                                                                 
 block1_conv2 (Conv2D)       (None, 50, 50, 64)        36928     
                                                                 
 block1_pool (MaxPooling2D)  (None, 25, 25, 64)        0         
                                                                 
 block2_conv1 (Conv2D)       (None, 25, 25, 128)       73856     
                                                                 
 block2_conv2 (Conv2D)       (None, 25, 25, 128)       147584    
                                                                 
 block2_pool (MaxPooling2D)  (None, 12, 12, 128)       0         
                                                                 
 block3_conv1 (Conv2D)       (None, 12, 12, 256)       295168    
                                                                 
 block3_conv2 (Conv2D)       (None, 12, 12, 256)       590080    
                                                                 
 block3_conv3 (Conv2D)       (None, 12, 12, 256)       590080    
                                                                 
 block3_conv4 (Conv2D)       (None, 12, 12, 256)       590080    
                                                                 
 block3_pool (MaxPooling2D)  (None, 6, 6, 256)         0         
                                                                 
 block4_conv1 (Conv2D)       (None, 6, 6, 512)         1180160   
                                                                 
 block4_conv2 (Conv2D)       (None, 6, 6, 512)         2359808   
                                                                 
 block4_conv3 (Conv2D)       (None, 6, 6, 512)         2359808   
                                                                 
 block4_conv4 (Conv2D)       (None, 6, 6, 512)         2359808   
                                                                 
 block4_pool (MaxPooling2D)  (None, 3, 3, 512)         0         
                                                                 
 block5_conv1 (Conv2D)       (None, 3, 3, 512)         2359808   
                                                                 
 block5_conv2 (Conv2D)       (None, 3, 3, 512)         2359808   
                                                                 
 block5_conv3 (Conv2D)       (None, 3, 3, 512)         2359808   
                                                                 
 block5_conv4 (Conv2D)       (None, 3, 3, 512)         2359808   
                                                                 
 block5_pool (MaxPooling2D)  (None, 1, 1, 512)         0         
                                                                 
 flatten_1 (Flatten)         (None, 512)               0         
                                                                 
 dense_1 (Dense)             (None, 29)                14877     
                                                                 
=================================================================
Total params: 20,039,261
Trainable params: 14,877
Non-trainable params: 20,024,384
_________________________________________________________________
Epoch 1/10
1360/1360 [==============================] - 355s 260ms/step - loss: 15.4121 - accuracy: 0.5329 - val_loss: 2.0915 - val_accuracy: 0.6238
…
